controllers/09_05_rll_ttc6p5scale1p8_maxacc0p75/super_resolution.onnx (onnx, 54653 bytes, 9 tensors)

mlp_extractor.policy_net.0.weight f4 [64, 3]
0	0x3ed39838	0.4132707
1	0x3cb91f2b	0.02259787
2	0xbebfb21b	-0.3744057
3	0x3dcb01ef	0.09912478
4	0x3dc31e0d	0.09527216
5	0xbdf09b19	-0.117483325
6	0x3d2c82b2	0.04211683
7	0xbe084a07	-0.13309489
8	0xbe24bb28	-0.1608702
9	0x3e262fd2	0.1622918
10	0xbe088c49	-0.13334765
11	0x3df7a74c	0.12092456
12	0xbe21dddb	-0.15807287
13	0x3dd4e59e	0.103953585
14	0xbe13af11	-0.14422251
15	0x3e20ad98	0.15691221
16	0xbe5b4c50	-0.2141583
17	0x3e2ad245	0.16681774
18	0xbe314c1a	-0.17314187
19	0xbedd510c	-0.43225896
20	0x3ddef2bd	0.108861424
21	0xbe821dd8	-0.25413394
22	0x3db6e030	0.08929479
23	0x3d9d8ce6	0.0769289
24	0x3d980e68	0.07424623
25	0xbdfb74ca	-0.12278135
26	0x3cd06189	0.025437133
27	0x3e472846	0.19448957
28	0xbe8aa05d	-0.27075472
29	0x3e7a87de	0.24465892
30	0x3d7205d9	0.059087608
31	0xbe8712d4	-0.26381552
32	0xbeb1b718	-0.34710002
33	0x3e9dbe9a	0.3080948
34	0x3e81152a	0.2521146
35	0xbd6767c4	-0.056495443
36	0xbe4140ce	-0.18872377
37	0x3d9c7eed	0.07641397
38	0xbd13c63d	-0.036077727
39	0xbe7e792b	-0.2485091
40	0x3dacf933	0.084459685
41	0x3e81ba6e	0.25337547
42	0x39620cd6	0.00021557821
43	0x3e6d2033	0.23156814
44	0xbe8c4c27	-0.2740185
45	0xbda1e3b2	-0.079047576
46	0x3e374f0a	0.17901245
47	0x3da65d3b	0.08123251
48	0xbd015079	-0.031570885
49	0x3d03cd5d	0.03217827
50	0xbd8aedeb	-0.067836605
51	0x3dc30a05	0.095233954
52	0x3df414c0	0.1191802
53	0xbdcb2273	-0.0991868
54	0xbcd5f71a	-0.026118804
55	0xbe2eb380	-0.17060661
56	0x3e4cd4e7	0.20003091
57	0x3dcf0629	0.10108597
58	0x3e05267f	0.13002966
59	0xbd6e5b2a	-0.05819241
60	0xbda41565	-0.08011893
61	0x3da0e0f2	0.07855405
62	0x3d88e3ed	0.066840984
63	0xbda5fae7	-0.081044964
64	0xbe16c1d9	-0.14722385
65	0x3e4f7c8b	0.20262353
66	0x3e0e09fd	0.13870998
67	0x3e9abbba	0.3022135
68	0xbe0471dc	-0.12934059
69	0xbe86773e	-0.2626285
70	0x3df98089	0.12182719
71	0x3e3200ca	0.17383114
72	0x3d3306f0	0.043707788
73	0xbb70aac6	-0.0036722883
74	0xbd700812	-0.058601446
75	0x3efbf859	0.49212912
76	0xbebdf78c	-0.37102926
77	0x3e0bc127	0.136479
78	0xbdfd5f4c	-0.12371692
79	0xbed2d640	-0.41179085
80	0xbd54b760	-0.051932693
81	0xbe186408	-0.14881909
82	0x3e57cfeb	0.21075408
83	0x3de34462	0.11097027
84	0xbdbb9fde	-0.091613516
85	0xbe2d4403	-0.16920476
86	0x3e863b2f	0.26217028
87	0x3d675776	0.056479894
88	0x3df55e07	0.11980825
89	0xbdfae00b	-0.12249764
90	0xbe0f94a8	-0.14021552
91	0x3de56f4b	0.11202868
92	0x3e3a2383	0.18177609
93	0xbe146304	-0.14490896
94	0x3e29f182	0.16596034
95	0xbd87d844	-0.06633046
96	0x3e2446e6	0.1604267
97	0x3c0106b4	0.007875133
98	0xbee40a43	-0.4453908
99	0x3efd66e3	0.4949256
100	0xbdc64f29	-0.09683067
101	0xbd5a49f9	-0.053293202
102	0xbdb6267e	-0.088940606
103	0xbeba3f4e	-0.36376423
104	0x3e263392	0.1623061
105	0xbe2f87b1	-0.17141606
106	0x3e1627ed	0.14663668
107	0xbb9dee8a	-0.004819696
108	0xbe2abf5f	-0.16674565
109	0xbe69d4e4	-0.22835118
110	0x3e20c181	0.15698816
111	0xbe3de8f8	-0.18545902
112	0x3dafbac0	0.085805416
113	0x3e4b1d2d	0.19835348
114	0xbbc0172f	-0.0058621387
115	0xbe802182	-0.25025564
116	0x3d559a9e	0.052149408
117	0xbe8c3b8f	-0.2738919
118	0xbd393c73	-0.045223664
119	0xbd8e7154	-0.069552094
120	0xbe2d4f05	-0.16924675
121	0x3ce82d9a	0.028342057
122	0x3e9f3ab2	0.31099468
123	0xbc977486	-0.01848818
124	0xbe9fe339	-0.31228045
125	0x3d5cbc34	0.053890422
126	0x3efaf581	0.4901543
127	0x3dcde3bd	0.10053203
128	0xbe0d9a9e	-0.13828513
129	0x3e0a9081	0.13531686
130	0xbde82f35	-0.11337129
131	0x3d8cd329	0.06876213
132	0x3e1fa5cf	0.15590595
133	0xbe8a2763	-0.26983175
134	0xbdefa07f	-0.11700534
135	0xbe87de81	-0.26536945
136	0xbe0f06f6	-0.13967499
137	0xbe23bb91	-0.1598952
138	0xbe4eff89	-0.20214666
139	0x3e116d33	0.14201812
140	0x3c9ad718	0.018901393
141	0xbc8b2713	-0.016986405
142	0x3e19a8bc	0.15005773
143	0xbe87bd20	-0.26511478
144	0x3e5af48f	0.21382354
145	0x3bf1b231	0.0073759784
146	0x3cf3b605	0.02974988
147	0x3dce0cd9	0.10061044
148	0xbedddd4c	-0.433329
149	0x3e37675d	0.17910524
150	0x3d5c82b4	0.053835586
151	0x3ce7a5ca	0.028277297
152	0xbe63902c	-0.22222966
153	0xbea982fc	-0.33107746
154	0x3e32c9de	0.17459819
155	0xbd396a23	-0.045267235
156	0xbf0dd575	-0.55403835
157	0x3de1e810	0.110305905
158	0x3e0ca835	0.13736041
159	0x3db4361d	0.08799384
160	0xbd335f64	-0.043792143
161	0xbf041a21	-0.5160237
162	0xbe85f430	-0.26162863
163	0x3e96153a	0.2931307
164	0x3de0b3be	0.10971783
165	0x3cd15acd	0.025555992
166	0xbd673da0	-0.056455255
167	0x3e065d96	0.13121638
168	0xbe494c7e	-0.19658086
169	0xbdbbfc0e	-0.09178935
170	0x3e918474	0.28421366
171	0x3e300549	0.17189516
172	0x3c4c15a7	0.012456334
173	0x3d15ea2c	0.036600277
174	0xbd452c9e	-0.048138253
175	0x3e81b5f7	0.2533414
176	0x3cd088e6	0.025455903
177	0x3e36d7e6	0.17855796
178	0xbbb706f0	-0.005585544
179	0xbe6ce730	-0.23135066
180	0xbd28498f	-0.041085776
181	0xbd3af52d	-0.045643974
182	0xbe4ec387	-0.20191775
183	0x3e2f24be	0.1710386
184	0xbd964a18	-0.07338351
185	0xbdc09891	-0.094041
186	0xbde25e2b	-0.11053117
187	0x3eba5cfc	0.36399066
188	0x3d4071c5	0.0469835
189	0xbe09158e	-0.13387129
190	0x3d2370a0	0.03990233
191	0x3d990d04	0.07473186

mlp_extractor.policy_net.0.bias f4 [64]
0	0x3d68c63a	0.05682967
1	0xbd698f38	-0.05702135
2	0x3dd5561f	0.10416817
3	0xbddad517	-0.10685175
4	0x3e0146a9	0.12624611
5	0xbdec4c03	-0.115379356
6	0x3cadcbc9	0.021215336
7	0x3c60c867	0.013719655
8	0x3c8e93b2	0.017404411
9	0xbe22f339	-0.15913095
10	0x3ccc2d59	0.024923967
11	0xbd9bdf2d	-0.07610927
12	0x3d1947fe	0.037422173
13	0xbdd21533	-0.1025795
14	0x3dbfacf9	0.09359164
15	0xbdc479a6	-0.09593515
16	0x3cf2200b	0.029556295
17	0xbdca7e58	-0.098873794
18	0xbd02e25c	-0.031954154
19	0xbde8c6d8	-0.113660514
20	0xbd38aad0	-0.045084774
21	0xbb7d8e87	-0.003868969
22	0xbd13dedb	-0.036101203
23	0xbdc63222	-0.09677531
24	0x3b61c032	0.0034446833
25	0xbcc5ecf0	-0.024160832
26	0x3ddd9dc6	0.108211085
27	0xbd9f9188	-0.0779143
28	0xbd829206	-0.06375508
29	0xbd6690e1	-0.05629051
30	0xbcea6848	-0.028614178
31	0xbc9046bd	-0.017611856
32	0x3d8a2349	0.06745011
33	0xbcb9a77f	-0.022662876
34	0x3d86a977	0.065752916
35	0x3c7fd77e	0.015615342
36	0x3dffb2ec	0.124852985
37	0xbdc0efd2	-0.09420742
38	0x3b39e3de	0.002836458
39	0x3db841a3	0.08996894
40	0xbe0e8c6a	-0.13920751
41	0x3d386efc	0.045027718
42	0x3d0ed885	0.034874458
43	0xbc801b65	-0.015638063
44	0x3d95e666	0.07319336
45	0x3e004f39	0.12530221
46	0x3cb687dd	0.022281582
47	0x3e1d9a9c	0.1539101
48	0xbd83aec7	-0.064298205
49	0xbc6dbc23	-0.014510187
50	0x3e034d05	0.1282235
51	0x3c22754c	0.009915661
52	0xbdaa7367	-0.083227925
53	0x3cbc84bf	0.023012517
54	0xbe045a6e	-0.12925121
55	0xbd668e68	-0.056288153
56	0xbc3e7e38	-0.011626773
57	0xbd1b7c84	-0.037960544
58	0xbcc5713b	-0.024101844
59	0x3db1a985	0.086749114
60	0x3e48ee6c	0.196222
61	0x3d06fc48	0.032955438
62	0x3c1a78fd	0.00942826
63	0xbd7ecb16	-0.062205397

mlp_extractor.policy_net.2.weight f4 [64, 64]
0	0xbe271819	-0.16317786
1	0xbd671218	-0.05641374
2	0x3d7a8b09	0.06116775
3	0xbcb604c6	-0.022219073
4	0x3e1726a5	0.14760835
5	0x3e837c87	0.25680944
6	0xbd1a9c1f	-0.037746545
7	0xbe006df9	-0.12541951
8	0x3cb35e61	0.02189559
9	0x3e187654	0.14888889
10	0xbe890840	-0.26764107
11	0xbe04bc1e	-0.12962386
12	0xbe9bed0b	-0.30454287
13	0xbdc14ac4	-0.094380885
14	0xbd3311ef	-0.043718275
15	0x3e26fb56	0.16306815
16	0x3d7cfc5d	0.06176411
17	0xbd54ecb9	-0.05198357
18	0xbdb46cd7	-0.08809822
19	0xbe1f3c14	-0.15550262
20	0xbe7d1af6	-0.24717316
21	0x3dfb4ede	0.12270902
22	0x3af8f13a	0.001899279
23	0xbe62c549	-0.22145571
24	0x3e993ae4	0.29927742
25	0xbd34c693	-0.044134688
26	0xb7b3c7bc	-2.1431471e-05
27	0xbdd1b2e3	-0.10239198
28	0x3d8957b6	0.06706183
29	0xbd889822	-0.06669642
30	0x3da2d278	0.079503
31	0xbe35aec6	-0.17742452
32	0xbe92530b	-0.28578982
33	0x3e9172d6	0.28407925
34	0x3dbabc60	0.09117961
35	0x3d795150	0.06086856
36	0xbe78594a	-0.24252811
37	0xbe22831e	-0.1587033
38	0xbe2b6718	-0.16738546
39	0xbc3e4304	-0.011612657
40	0xbc175842	-0.009237351
41	0x3e106a35	0.14103015
42	0x3df040cb	0.11731108
43	0x3e054ce5	0.13017614
44	0x3e062d59	0.13103236
45	0xbe951036	-0.2911393
46	0xbbbb5e1b	-0.0057180054
47	0x3e926688	0.2859385
48	0xbc24d289	-0.010059961
49	0xbe17a326	-0.1480833
50	0xbd30fee9	-0.04321185
51	0x3e2b690a	0.16739288
52	0x3e3a2335	0.18177493
53	0x3eb66030	0.3562026
54	0xbe673d12	-0.2258189
55	0x3eaa1a89	0.3322337
56	0xbefaf2c9	-0.49013355
57	0xbce03e13	-0.02737335
58	0x3de30cb0	0.11086404
59	0xbe1203c5	-0.1425925
60	0xbde162ac	-0.11005148
61	0xbe2a409f	-0.16626213
62	0xbe391708	-0.18075192
63	0xbe801ef5	-0.25023618
64	0x3e723619	0.23653449
65	0x3d947e6e	0.07250677
66	0x3dc093c1	0.09403182
67	0x3ede843f	0.4346027
68	0x3dacf69a	0.08445473
69	0x3e5cc4b6	0.21559414
70	0x3dd63968	0.10460168
71	0xbcc35b32	-0.023847196
72	0x3cb7e931	0.022450062
73	0x3e4cf99c	0.20017093
74	0x3d2b39a0	0.041803002
75	0x3d98c920	0.074602365
76	0xbd721915	-0.05910595
77	0x3dfde3de	0.12396978
78	0xbf09fc1d	-0.5390032
79	0xbd97aacf	-0.07405626
80	0xbc8514ad	-0.01624521
81	0x3e7b1b54	0.24522144
82	0x3d815791	0.0631553
83	0xbd5ec75b	-0.05438934
84	0x3da1bd88	0.07897478
85	0x3d74feea	0.059813417
86	0x3e499fe1	0.19689895
87	0xbe974bc3	-0.2954999
88	0xbd5339f8	-0.051568955
89	0x3f067fa9	0.52538544
90	0xbdf0b565	-0.11753348
91	0xbe59a76c	-0.21255273
92	0x3d85cf3f	0.0653367
93	0x3e4e31b3	0.20136146
94	0xbe0c4d26	-0.13701305
95	0x3ddc58a9	0.10759098
96	0xbeab8a98	-0.33504176
97	0x3e923f1e	0.2856378
98	0x3d014128	0.03155628
99	0xbea72b6e	-0.32650322
100	0xbe9ef4ee	-0.31046242
101	0xbe6f8123	-0.23389105
102	0x3cb757a9	0.022380667
103	0xbe2a7522	-0.16646245
104	0x3e74215e	0.23840854
105	0xbe3e272a	-0.18569627
106	0x3deb6a9e	0.11494945
107	0x3d17b909	0.037041698
108	0xbd4914af	-0.04909199
109	0xbdd691cd	-0.10477028
110	0xbefaf332	-0.49013668
111	0xbe3cf2e8	-0.18452036
112	0xbe6dc30c	-0.23218936
113	0x3dc76fc7	0.09738117
114	0x3ea60d40	0.32431984
115	0xbe84752d	-0.25870648
116	0xba31eaf7	-0.00067870267
117	0x3c709f07	0.014686353
118	0xbecdbadf	-0.40181634
119	0xbc143fdb	-0.009048427
120	0x3c21ea9c	0.009882595
121	0x3d9f3a0a	0.07774742
122	0x3df0763d	0.11741302
123	0x3e53cd9c	0.20683903
124	0xbc8493ab	-0.016183695
125	0x3e2cf2a3	0.16889434
126	0x3de82a8e	0.11336242
127	0x3debe095	0.11517445
128	0xbeae692a	-0.3406461
129	0x3e8ed817	0.27899238
130	0x3e67cf39	0.22637643
131	0x3e330705	0.17483146
132	0x3bafcd12	0.0053650225
133	0xbe206cb7	-0.15666471
134	0xbd93df7a	-0.07220359
135	0x3dd0cf76	0.1019582
136	0x3ed3cefe	0.4136886
137	0x3cab2183	0.020890003
138	0x3c40fb0b	0.011778603
139	0xbd898203	-0.06714251
140	0xbda11c79	-0.07866759
141	0x3eb67755	0.35637918
142	0x3e925858	0.28583026
143	0xbe847e65	-0.2587768
144	0x3ded0e1a	0.11574955
145	0xbe19b521	-0.15010501
146	0xbe017933	-0.1264389
147	0x3d64c4c4	0.055851713
148	0x3daf0601	0.08546067
149	0xbe895bbe	-0.26827806
150	0x3dd59a8a	0.104298666
151	0xbe9a1eae	-0.30101532
152	0x3e6b5ef5	0.22985442
153	0xbd68f416	-0.056873403
154	0x3e398603	0.18117528
155	0x3dde9f4f	0.108702295
156	0xbdcc368f	-0.09971344
157	0x3e6ec381	0.23316766
158	0x3db45aaf	0.08806359
159	0xbd5f34b0	-0.054493606
160	0xbc3be88b	-0.011469017
161	0xbe209642	-0.15682319
162	0x3d0dda0e	0.03463178
163	0xbde1cb1a	-0.11025067
164	0xbdb88f71	-0.09011734
165	0xbe835a7c	-0.25654972
166	0x3e8e53b4	0.27798235
167	0x3e2f09e9	0.17093624
168	0xbd84baf7	-0.06480973
169	0xbe6927c0	-0.2276907
170	0xbea4a186	-0.32154483
171	0x3ddcfd9e	0.10790561
172	0xbccc7922	-0.024960104
173	0xbdde7e59	-0.10863943
174	0xbda2d4d6	-0.079507515
175	0x3def5bb9	0.116874166
176	0xbb525fcd	-0.0032100559
177	0x3e0e7c21	0.13914539
178	0xbdea74b6	-0.11448042
179	0x3dd3ed69	0.10348017
180	0x3dc40478	0.09571165
181	0xbea959be	-0.3307628
182	0xbe0866d9	-0.13320483
183	0xbdd2a70b	-0.10285767
184	0x3d8e9eef	0.06963908
185	0xbdc3699a	-0.09541626
186	0x3d435356	0.047686897
187	0x3e31fe27	0.17382108
188	0xbe693bfa	-0.22776785
189	0xbe4f3884	-0.20236403
190	0xbe54b17e	-0.20770833
191	0xbe2c5b6c	-0.1683175
192	0xbe672241	-0.2257166
193	0x3d8185d4	0.06324354
194	0xbe12212c	-0.14270467
195	0xbe424cd8	-0.18974626
196	0xbe47c487	-0.19508563
197	0xbe33306e	-0.17498943
198	0x3d2f03bd	0.042728174
199	0x3d856690	0.06513703
200	0xbc9fbce6	-0.019499253
201	0xbc8d3ac1	-0.01723993
202	0xbe55cebc	-0.20879644
203	0x3d5d893e	0.054085962
204	0xbe4b3427	-0.19844113
205	0xbe9f5c60	-0.31125164
206	0xbdc34b92	-0.09535898
207	0x3d11ab12	0.035563536
208	0x3cc7c3f6	0.024385434
209	0xbd8c3207	-0.068454795
210	0xbc843af3	-0.01614139
211	0xbcaddc8e	-0.021223333
212	0x3e892103	0.26782998
213	0xbe2906c1	-0.16506483
214	0x3bd11d96	0.0063817007
215	0xbe01013f	-0.12598132
216	0x3d611e53	0.05496056
217	0x3e1f95f0	0.1558454
218	0x3cb2ea4b	0.021840235
219	0xbec8d72a	-0.39226657
220	0xbdf4f056	-0.11959903
221	0xbe3629d9	-0.17789401
222	0x3cdbf987	0.026852382
223	0x3ed4774f	0.41497275
224	0x3d80f775	0.06297199
225	0xbe1791e9	-0.14801754
226	0xbd3f1135	-0.04664727
227	0x3e2103f8	0.1572417
228	0xbc77823f	-0.015106737
229	0xbe1698bf	-0.14706706
230	0x3ea0a5cb	0.3137649
231	0xbe8941c5	-0.2680799
232	0x3ef58a07	0.4795687
233	0x3e82858b	0.2549251
234	0xbd8419c4	-0.06450227
235	0xbd65e079	-0.056122277
236	0x3d119d48	0.035550386
237	0x3ddab1d2	0.10678448
238	0xbd70439c	-0.058658227
239	0x3e04f810	0.12985253
240	0xbe2acb1a	-0.1667904
241	0xbea0ad72	-0.31382328
242	0xbe5c9a90	-0.21543336
243	0x3c4a2e81	0.012340189
244	0x3c109985	0.008825664
245	0x3d507607	0.05089381
246	0x3d7df5c2	0.06200195
247	0xbe46e256	-0.19422278
248	0x3e8f66c3	0.28008088
249	0xbda46fd7	-0.08029144
250	0xbe91b936	-0.28461617
251	0xbda4ad90	-0.08040917
252	0x3db45601	0.088054664
253	0xbe593074	-0.2120989
254	0xbdfc82a0	-0.12329602
255	0xbe8a0a97	-0.26961204

mlp_extractor.policy_net.2.bias f4 [64]
0	0xbcd840e5	-0.026398132
1	0xbd0467f5	-0.032325704
2	0x3db21c7c	0.08696839
3	0xbd971968	-0.07377893
4	0xbcf8026c	-0.030274592
5	0xbc719fdc	-0.014747586
6	0xbd200129	-0.039063606
7	0xbc8179d1	-0.015805157
8	0xbc688836	-0.0141926315
9	0xbbcca9c9	-0.006245826
10	0x3ca31156	0.019905727
11	0x3b90c92f	0.004418514
12	0x3d698843	0.057014715
13	0x3d398a9d	0.045298208
14	0x3c15d89e	0.009145884
15	0x3dbcc689	0.09217555
16	0x3b93d6ad	0.0045116753
17	0x3d431300	0.04762554
18	0xbc455d65	-0.012046193
19	0xbd296045	-0.041351575
20	0xbde2f256	-0.11081378
21	0x3db66a3f	0.089069836
22	0xbdf83c58	-0.12120885
23	0xbdb329a6	-0.08748178
24	0xbbbb7037	-0.005720164
25	0x3daeb0f6	0.08529846
26	0x3ca72882	0.020405058
27	0x3d52b1ce	0.0514391
28	0x3d965708	0.07340819
29	0xbdd77ad1	-0.10521472
30	0xbd61cecd	-0.05512886
31	0xbcf90074	-0.030395724
32	0xbb674c1b	-0.0035293165
33	0x3cfb47ab	0.030673822
34	0xbd5285ef	-0.05139726
35	0xbcb79101	-0.02240801
36	0x3cc03cf1	0.02346656
37	0xbcef403f	-0.02920544
38	0x3b5d508e	0.0033769938
39	0x3d03f098	0.03221187
40	0x3ce23f62	0.027618114
41	0x3cd2b850	0.025722653
42	0x3c93d375	0.018045167
43	0xbd87df50	-0.0663439
44	0x3d04e414	0.032444075
45	0xbdbf88f6	-0.09352295
46	0x3d2e3b03	0.042536747
47	0x3d133c0a	0.03594593
48	0x3d004f26	0.03132548
49	0xbd39fbcf	-0.04540616
50	0xbd88e7d6	-0.06684844
51	0x3cd10c9d	0.02551871
52	0x3dbadbe7	0.09123974
53	0x3c1dd6a2	0.009633692
54	0xbdeb1d45	-0.11480192
55	0x3d0aeb55	0.033915836
56	0xbdd1b9f0	-0.10240543
57	0xbcb855bd	-0.02250182
58	0xbceec98e	-0.029148843
59	0x3d800d1a	0.06252499
60	0x3d2f17e4	0.042747393
61	0x3d2f5227	0.042802956
62	0xbd3fa639	-0.04678938
63	0x3d0f8d58	0.035046905

mlp_extractor.policy_net.4.weight f4 [64, 64]
0	0xbdf0d22e	-0.117588386
1	0xbdf4e881	-0.11958409
2	0xbd94a2d4	-0.072576195
3	0xbdea1238	-0.11429256
4	0xbcb0c97b	-0.021580448
5	0xbe1561ff	-0.14588164
6	0xbe21c87d	-0.15799136
7	0xbdf648a9	-0.120255776
8	0x3dcd20ba	0.10016008
9	0xbdb2e102	-0.08734323
10	0xbeac670d	-0.33672372
11	0x3cc25609	0.023722665
12	0x3d222c02	0.03959275
13	0xbea65248	-0.3248465
14	0x3d81f1b8	0.06344932
15	0xbe36d9a1	-0.17856456
16	0x3d013d7e	0.031552784
17	0xbe1f4202	-0.15552524
18	0x3e954d3c	0.29160488
19	0xbe1a022b	-0.1503989
20	0x3a38ba5d	0.0007046813
21	0x3e261579	0.16219129
22	0x3e220fc0	0.1582632
23	0x3d072d91	0.03300244
24	0x3d333143	0.04374815
25	0x3e8ff69a	0.2811783
26	0x3ae7fc8e	0.0017699169
27	0x3ec01c6b	0.3752168
28	0xbd5e154a	-0.05421952
29	0xbe40ef07	-0.18841182
30	0xbdc8ac56	-0.097984955
31	0x3e5bf9bb	0.21481983
32	0xbc9a8306	-0.018861305
33	0xbec5053d	-0.3848056
34	0x3e50f578	0.20406139
35	0xbea0f153	-0.31434116
36	0x3dfff53e	0.12497948
37	0xbd577ff0	-0.052612245
38	0xbe58a34e	-0.21156046
39	0xbceb6781	-0.028735878
40	0x3dcd0381	0.10010434
41	0x3eb9ccce	0.36289066
42	0x3c596afe	0.013270138
43	0x3d91e1b5	0.07123128
44	0xbda9b87a	-0.08287139
45	0xbdcfbc38	-0.10143322
46	0xbdf42a31	-0.1192211
47	0x3dac9250	0.084263444
48	0x3baeae11	0.005330809
49	0x3d2b1090	0.041763842
50	0x3e9e88e4	0.30963814
51	0xbc4b6238	-0.012413554
52	0xbe25f819	-0.16207923
53	0x3eaed179	0.3414419
54	0xbc8e778b	-0.017390987
55	0xbe1f0c81	-0.15532114
56	0xbdee9c2c	-0.11650881
57	0x3e645142	0.22296622
58	0x3ea4a7c1	0.32159236
59	0x3e1cad14	0.15300399
60	0xbdfb1f25	-0.122618
61	0x3e29a546	0.16566953
62	0x3e9a5f47	0.30150816
63	0x3de874e1	0.11350418
64	0xbe9bef4c	-0.30456007
65	0xbe9e5cae	-0.30930084
66	0xbe23c2fc	-0.1599235
67	0x3e3ab498	0.18232954
68	0x3e229c70	0.15879989
69	0xbc891421	-0.016733231
70	0xbed84ac7	-0.4224455
71	0xbca661af	-0.020310251
72	0xbea807a9	-0.32818344
73	0xbcc848f3	-0.024448847
74	0x3d505563	0.05086268
75	0xbdae34e4	-0.08506182
76	0xbe2bc3f8	-0.16773975
77	0x3e8874ab	0.2665151
78	0xbc9a78b9	-0.018856393
79	0x3df4fd25	0.11962346
80	0xbcceb67a	-0.025233496
81	0x3ce672bb	0.02813088
82	0xbe17c220	-0.14820147
83	0xbe32ca36	-0.1745995
84	0xbc19b1bf	-0.009380757
85	0x3da517d5	0.08061186
86	0x3d529070	0.051407278
87	0x3d2d60d1	0.04232866
88	0xbe0a25c0	-0.13490963
89	0x3d4067ea	0.0469741
90	0x3db4041f	0.087898485
91	0xbc1d000b	-0.00958253
92	0x3cbc5821	0.022991242
93	0xbdfb1028	-0.12258941
94	0xbe9f090f	-0.310616
95	0xbe0bd140	-0.13654041
96	0x3d7ccde2	0.061719783
97	0x3e79f80b	0.24411027
98	0xbe81bf72	-0.25341374
99	0x3d858234	0.06518975
100	0x3cc94249	0.02456774
101	0x3e31f1f3	0.17377453
102	0xbed34616	-0.4126441
103	0xbe22f948	-0.15915406
104	0x3e39f9db	0.18161719
105	0x3e1d504e	0.15362665
106	0x3ce46d73	0.02788422
107	0xbe0859f9	-0.13315572
108	0x3e964481	0.2934914
109	0xbe5bab18	-0.21451986
110	0xbdd8d78d	-0.10587988
111	0xbc0516ac	-0.008123081
112	0xbd53e2d6	-0.05173
113	0x3dd4a4d7	0.10383003
114	0xbdbc951a	-0.09208126
115	0x3e347540	0.17622852
116	0xbe03acf3	-0.12858944
117	0xbe7b7e2d	-0.24559851
118	0xbe801f57	-0.2502391
119	0xbd923485	-0.071389236
120	0xbee0251a	-0.43778306
121	0xbe2822f2	-0.1641958
122	0x3e3621b8	0.177863
123	0xbe0bf0c7	-0.13666068
124	0xbe77fcff	-0.24217604
125	0xbe95d526	-0.29264182
126	0x3e3d0695	0.18459542
127	0xbcb8efdc	-0.022575311
128	0xbe871fd1	-0.26391461
129	0xbd134ced	-0.035962034
130	0x3e635c3f	0.22203158
131	0x3cf9f967	0.030514432
132	0xbe04ec69	-0.12980808
133	0xbea20028	-0.31640744
134	0xbdb58fa3	-0.08865287
135	0xbcf6a466	-0.030107688
136	0xbc727660	-0.014798731
137	0xbe0fe274	-0.14051229
138	0x3e093129	0.1339766
139	0x3d057a22	0.032587178
140	0x3be7cb75	0.0070738145
141	0x3c7599c9	0.0149902785
142	0xbdb95b33	-0.09050598
143	0x3ccf0588	0.025271192
144	0xbd5b636b	-0.05356161
145	0x3dcab690	0.09898102
146	0x3c507b0e	0.012724651
147	0xbe083598	-0.13301694
148	0x3de29929	0.11064369
149	0x3e807d77	0.25095722
150	0xbd1dab49	-0.03849343
151	0xbeae20c5	-0.34009376
152	0xbe093e9e	-0.13402793
153	0xbe3c37d3	-0.1838067
154	0x3ec9fc89	0.39450482
155	0xbd703422	-0.058643468
156	0xbc2a6eb0	-0.0104023665
157	0x3dcc1f20	0.09966874
158	0x3e2100cd	0.15722962
159	0x3dc412a7	0.0957387
160	0x3e5d825c	0.2163176
161	0x3d4de5af	0.05026787
162	0xbdfaa2c8	-0.12238079
163	0xbe782162	-0.24231485
164	0x3d0ff358	0.03514418
165	0xbec771ce	-0.38954014
166	0x3cc47b39	0.023984538
167	0x3db164d2	0.08661808
168	0x3e05e5e9	0.13075985
169	0xbe800aab	-0.2500814
170	0xbebf0859	-0.37311056
171	0xbe008b8a	-0.1255323
172	0x3c953b93	0.018216884
173	0x3e4fb64c	0.20284384
174	0xbd3323d0	-0.043735325
175	0xbdc284dd	-0.09497998
176	0x3ec81220	0.39076328
177	0x3e971ea4	0.29515564
178	0xbb8c9080	-0.0042896867
179	0xbe188672	-0.14895037
180	0xbdb2bb20	-0.087270975
181	0x3cf30f23	0.029670304
182	0xbd8994b5	-0.06717817
183	0xbe1586c2	-0.14602187
184	0x3e8ed067	0.27893373
185	0xbe9ec340	-0.3100834
186	0x3e904a40	0.28181648
187	0xbdb4ca75	-0.08827678
188	0x3e7a3045	0.24432476
189	0xbd1e254d	-0.03860979
190	0x3e78ff7c	0.2431621
191	0x3e636805	0.22207649
192	0xbb8f25a3	-0.0043685003
193	0xbe540529	-0.20705093
194	0xbe152050	-0.14563107
195	0xbd948b6d	-0.07253156
196	0x3cc63d74	0.024199225
197	0xbe21961b	-0.15779917
198	0x3e5fa584	0.21840483
199	0x3e01a379	0.12660016
200	0x3e74327a	0.2384738
201	0x3e8cb7e2	0.2748404
202	0xbea94b40	-0.33065224
203	0xbdb97a18	-0.09056491
204	0xbed86079	-0.42261103
205	0x3d938317	0.07202738
206	0x3e045dde	0.12926432
207	0x3d81caae	0.06337486
208	0x3da90ddf	0.08254599
209	0x3e9c712f	0.30555102
210	0x3ccd461b	0.025057843
211	0xbe41356a	-0.18868032
212	0x3de9992d	0.11406169
213	0xbe870a5e	-0.26375097
214	0xbc30f8cc	-0.010801505
215	0xbe0839f4	-0.13303357
216	0xbd7d66a7	-0.061865475
217	0xbe20fb0a	-0.15720764
218	0x39f3f028	0.00046527502
219	0xbd99e09e	-0.075135455
220	0xbeb7801e	-0.35839933
221	0x3dd90e12	0.10598387
222	0xbcdae626	-0.026721071
223	0xbe95aabf	-0.2923183
224	0xbcfc5c0a	-0.030805606
225	0x3d967894	0.07347217
226	0xbd9b67da	-0.075881675
227	0xbda8066f	-0.08204352
228	0xbd8af451	-0.06784881
229	0xbe6cde78	-0.2313174
230	0xbd0717e3	-0.032981765
231	0xbd47c45a	-0.04877124
232	0x3e337dfe	0.17528531
233	0x3aa3d2e9	0.0012498769
234	0xbe632c8b	-0.2218496
235	0x3e45a1d6	0.19300017
236	0xbd7681c6	-0.060182355
237	0xbc1b3a36	-0.009474328
238	0xbd4cbf17	-0.049986925
239	0x3e283cd4	0.16429454
240	0xbd8783b6	-0.06616919
241	0x3e93812f	0.28809497
242	0x3d0d32af	0.034472164
243	0xbdcaed9e	-0.09908603
244	0xbed57d21	-0.41697028
245	0x3e8ef6b0	0.27922583
246	0xbe918ac2	-0.28426176
247	0x3ea2ce61	0.3179808
248	0xbd472ae2	-0.04862488
249	0x3e6edc48	0.23326218
250	0xbdfb6037	-0.12274211
251	0x3e4e9047	0.20172225
252	0x3e578567	0.21046983
253	0xbe955124	-0.29163468
254	0xbe49ab86	-0.19694337
255	0x3e52921b	0.20563547

mlp_extractor.policy_net.4.bias f4 [64]
0	0xbced8895	-0.028995791
1	0xbd0c67b9	-0.034278605
2	0x3caca2a5	0.021073649
3	0x3be353c1	0.0069374745
4	0xbb9b37ec	-0.004736891
5	0x3cac7ca7	0.021055533
6	0xbb818509	-0.0039526266
7	0x3c8356a4	0.016032524
8	0x3d13110d	0.035904933
9	0xbc898a12	-0.01678947
10	0x3cc7898a	0.024357576
11	0xbd2769fe	-0.040872566
12	0xbd8dbd51	-0.06920875
13	0x3bdf8ae6	0.006821978
14	0xbcb250ec	-0.021767102
15	0xbc09e2c0	-0.008415878
16	0x3da2b588	0.079447806
17	0xbcdd9c27	-0.027051998
18	0x3cce6156	0.025192898
19	0xbc5203f9	-0.01281833
20	0xbcb60021	-0.022216858
21	0x3d63472a	0.05548779
22	0xbc225a96	-0.009909293
23	0xbcf2943b	-0.029611697
24	0xbb88180d	-0.0041532577
25	0xbd09e9f2	-0.033670373
26	0x3d1a049b	0.03760205
27	0x3d12027b	0.035646897
28	0xbc9350d0	-0.01798287
29	0x3cdd364a	0.027003426
30	0x3d274e0f	0.040845927
31	0xbd4ca5c3	-0.04996277
32	0x3cd27158	0.025688812
33	0x3cd42dad	0.025900686
34	0x3cc97952	0.024593983
35	0xbc5a58d2	-0.0133268405
36	0x3d0d8361	0.03454912
37	0x3ce8d876	0.02842353
38	0x3cce4f78	0.025184378
39	0x3c713eab	0.014724414
40	0xbcf79e86	-0.030226957
41	0x3d83c6dd	0.064344145
42	0xbca5a0a9	-0.02021821
43	0xbcb87a86	-0.022519361
44	0x3ced2951	0.028950365
45	0x3bb4d27d	0.005518256
46	0x3b43193b	0.0029769677
47	0x3d4aa35c	0.049472198
48	0xb9d2e812	-0.00040227227
49	0x3caee7f5	0.02135084
50	0x3cdf0f87	0.027229084
51	0xbd25b463	-0.040455233
52	0x3d41b3d2	0.04729063
53	0xbcbd5732	-0.023112867
54	0x3c48746e	0.01223479
55	0x3d4850ed	0.0489053
56	0xbcac13bd	-0.021005506
57	0x3d4297fb	0.04750822
58	0x3d0aa03f	0.03384423
59	0x3c5d9fca	0.013526866
60	0x3c0ee871	0.008722411
61	0xbcfcee3d	-0.03087532
62	0x3d226a5d	0.039652217
63	0x3d296cb1	0.04136342

mlp_extractor.policy_net.6.weight f4 [64, 64]
0	0x3e5446eb	0.20730178
1	0xbdc60071	-0.09668053
2	0xbe21673b	-0.15762036
3	0x3d7a3e81	0.061094765
4	0xbe4371e7	-0.19086419
5	0xbe985986	-0.297558
6	0xbda7be3e	-0.08190583
7	0x3da37991	0.07982171
8	0x3e9a11e1	0.30091766
9	0x3d201955	0.03908666
10	0xbca58988	-0.020207182
11	0xbe3e800f	-0.18603538
12	0xbe098d99	-0.13432921
13	0x3e3dbe92	0.18529728
14	0xbe6b091b	-0.22952692
15	0xbe2bdf41	-0.16784383
16	0xbd88aa82	-0.06673147
17	0xbe990e8d	-0.29893914
18	0x3e0d54fd	0.13801952
19	0x3e9ce443	0.306429
20	0x3e6ad78a	0.22933784
21	0x3e560883	0.20901684
22	0xbbad61b5	-0.0052911886
23	0x3d7d1015	0.061782915
24	0xbd225243	-0.039629232
25	0xbd37ba57	-0.044855442
26	0x3e8ad084	0.2711221
27	0xbe235065	-0.15948637
28	0xbd39293b	-0.045205336
29	0x3dd1e89f	0.10249447
30	0xbdac20fb	-0.08404728
31	0xbcb67660	-0.022273242
32	0x3dfe1ca5	0.12407807
33	0x3defb236	0.11703913
34	0xbec4a34b	-0.38405833
35	0xbe8449eb	-0.25837645
36	0xbe29bb0f	-0.16575263
37	0x3e9ade84	0.3024789
38	0xbbcd5554	-0.0062662754
39	0xbe5ae021	-0.21374561
40	0x3df3dc52	0.11907257
41	0xbeb2aedf	-0.3489904
42	0xb8ea0287	-0.0001115846
43	0x3d2ac59d	0.041692365
44	0x3d7ba498	0.061436266
45	0x3e8ae5c2	0.27128416
46	0xbe8c71ff	-0.27430722
47	0xbdc664db	-0.096872054
48	0x3d813fe1	0.06311012
49	0xbdf0deac	-0.11761221
50	0xbe3995cb	-0.18123548
51	0x3e86edb9	0.26353243
52	0x3cb9995d	0.022656137
53	0xbd18bbf4	-0.03728862
54	0xbe5ea4fb	-0.21742623
55	0xbe8d4b51	-0.27596524
56	0x3ddb8cf2	0.107202426
57	0x3df46b36	0.11934511
58	0x3d99a27b	0.07501694
59	0xbd8142c0	-0.0631156
60	0xbe6c743d	-0.23091216
61	0x3e5806ae	0.21096298
62	0xbed4c19a	-0.41553956
63	0xbca8afa6	-0.020591568
64	0xbe800719	-0.25005415
65	0x3e2d219d	0.16907354
66	0xbdd7276d	-0.10505567
67	0x3d113cd7	0.035458412
68	0x3d1ec879	0.038765404
69	0x3e7db2ee	0.24775288
70	0xbec92054	-0.39282477
71	0x3d931ea2	0.07183577
72	0x3e644915	0.22293504
73	0xbcae6250	-0.021287113
74	0xbddacf60	-0.10684085
75	0xbe2b3a37	-0.16721426
76	0xbe40c9f8	-0.18827045
77	0xbe9604e0	-0.29300594
78	0x3e9edd3c	0.31028163
79	0xb9853919	-0.00025410278
80	0x3dd684df	0.10474562
81	0xbe271116	-0.16315112
82	0xbe903fd2	-0.2817369
83	0x3e0e1a6c	0.13877267
84	0xbd3baab9	-0.04581711
85	0xbd874f61	-0.06606937
86	0x3e0eb602	0.13936618
87	0xbe8f70bd	-0.280157
88	0x3da3eedf	0.080045454
89	0x3e0c1002	0.13677981
90	0xbd8ab4c9	-0.06772763
91	0xbdc14af7	-0.094381265
92	0x3d7a3602	0.061086662
93	0xbd932a07	-0.071857505
94	0xbdcc44b1	-0.09974039
95	0x3ddaaf56	0.10677974
96	0x3e258161	0.16162635
97	0x3ebe8baf	0.37215945
98	0x3dccf587	0.10007768
99	0xbcfa7231	-0.030572029
100	0xbe18d118	-0.14923513
101	0xbd13958b	-0.036031287
102	0xbd303bb5	-0.04302569
103	0xbcc39ead	-0.023879373
104	0x3d888267	0.06665497
105	0x3ea1f801	0.31634524
106	0x3d8db2c8	0.069188654
107	0x3e46a310	0.19398141
108	0x3c8a24a0	0.016863167
109	0x3a7e0af1	0.00096909615
110	0x3d41383f	0.04717278
111	0x3c9dc39a	0.01925831
112	0x3e01ec08	0.12687695
113	0xbca1d428	-0.019754484
114	0xbe3e27cc	-0.18569869
115	0x3ef43ff3	0.4770504
116	0xbd004dc3	-0.03132416
117	0xbe35cac6	-0.17753133
118	0xbde12470	-0.10993278
119	0x3e8096b2	0.2511497
120	0x3dbfbec1	0.09362555
121	0xbd6d48e3	-0.05793084
122	0x3e594d2e	0.21220848
123	0x3c9e8725	0.019351551
124	0xbe13dbd8	-0.14439332
125	0xbc394a2a	-0.011309186
126	0xbc1fc1ef	-0.009750827
127	0xbecdfdaa	-0.40232593
128	0x3e765171	0.24054505
129	0x3d5c9cdd	0.053860534
130	0x3ce3ea86	0.02782179
131	0x3c53cbdb	0.012927021
132	0xbe80b4d2	-0.25137955
133	0xbed48b65	-0.415126
134	0xbe530ac3	-0.20609574
135	0xbdcbbfc3	-0.09948685
136	0x3e47a5f7	0.19496904
137	0xbe318d18	-0.17338979
138	0x3e6a9ddd	0.22911783
139	0xbc012ca3	-0.007884177
140	0xbe3805e3	-0.17970996
141	0x3cf8802a	0.03033455
142	0x3d0e2165	0.034699816
143	0x3e2eb2b9	0.17060365
144	0x3cc72aad	0.024312342
145	0xbe4a3634	-0.1974724
146	0x3e340a19	0.17581977
147	0xbc13a87e	-0.00901234
148	0xbe833d01	-0.2563248
149	0x3d147ce3	0.036251914
150	0x3c92417e	0.017853495
151	0xbea22dd9	-0.31675604
152	0xbe65b6d1	-0.2243302
153	0xbea93c3f	-0.33053777
154	0xbb60e092	-0.0034313542
155	0xbe908898	-0.28229213
156	0x3ded2584	0.11579421
157	0xbe072552	-0.1319783
158	0x3ea4508f	0.3209271
159	0x3dd48e1d	0.103786685
160	0x3d7be0c1	0.06149364
161	0xbd8476d4	-0.06467977
162	0xbcc58701	-0.024112226
163	0xbd2882fd	-0.041140545
164	0x3e29dca5	0.16588075
165	0xbd857868	-0.06517106
166	0xbda6f181	-0.08151532
167	0xbc9ec8f2	-0.019382928
168	0x3d2eb3ef	0.042652067
169	0x3d64287b	0.055702668
170	0x3d90fcb8	0.07079452
171	0xbde3af08	-0.11117369
172	0xbddd0fa5	-0.107939996
173	0x3cc9bb62	0.024625484
174	0x3e52764c	0.20552939
175	0xbdd4cf6c	-0.10391125
176	0x3e656f33	0.224057
177	0xbe430cdb	-0.19047873
178	0x3d0a2541	0.033726934
179	0x3e258e1f	0.16167496
180	0xbbf5a3ee	-0.0074963486
181	0xbe1d677e	-0.1537151
182	0x3e5a16d5	0.21297772
183	0x3eaa9910	0.33319902
184	0x3e11bb57	0.1423162
185	0x3d4451a6	0.04792943
186	0xbee139e9	-0.43989494
187	0xbe962a82	-0.29329306
188	0x3e86af2b	0.26305518
189	0xbd480d8d	-0.048841048
190	0x3dda3346	0.10654311
191	0x3d0f4674	0.0349793
192	0xbd98546e	-0.07437979
193	0xbeaf9f75	-0.34301344
194	0xbdca0b69	-0.098654576
195	0xbe8c63ce	-0.27419895
196	0x3dad24f3	0.08454313
197	0xbe702a70	-0.23453689
198	0xbe10e2f4	-0.14149076
199	0xbe6246e6	-0.22097358
200	0x3d65ab8b	0.0560718
201	0xbe3ec653	-0.18630342
202	0xbec92230	-0.39283895
203	0x3dcb78d4	0.099351555
204	0xbe24fc9a	-0.16111985
205	0x3e95b418	0.29238963
206	0x3d0d56eb	0.03450672
207	0x3e1419fd	0.14463039
208	0x3e397440	0.18110752
209	0x3eb97d93	0.36228618
210	0x3e42a866	0.19009551
211	0x3e82b1e0	0.25526333
212	0xbe7bb6e4	-0.24581486
213	0x3da51b7f	0.08061885
214	0x3d10adc0	0.03532195
215	0x3e8ffc32	0.28122097
216	0x3cab4484	0.020906694
217	0x3dbc85be	0.09205197
218	0xbe680a2b	-0.22660129
219	0x3da4866d	0.08033452
220	0x3d9d9134	0.07693711
221	0xbd1fd893	-0.0390249
222	0x3e35c144	0.17749506
223	0x3d9c3a41	0.076282986
224	0xbe16a6e5	-0.14712103
225	0x3e143a12	0.14475277
226	0xbe0a68a9	-0.13516487
227	0xbd264487	-0.040592697
228	0xbdde37ff	-0.10850524
229	0xbcc11c86	-0.023573171
230	0xbeac3c9d	-0.33639994
231	0xbe3fadda	-0.18718663
232	0x3da86358	0.08222073
233	0x3e0d89e0	0.13822126
234	0x3ca7d3c0	0.020486712
235	0x3dcdb613	0.100444935
236	0x3d7ff8ee	0.062493257
237	0xbd48c5bc	-0.0490167
238	0x3df9a19a	0.12189026
239	0xbebd463d	-0.3696765
240	0xbdbb7217	-0.0915262
241	0x3ee6fc45	0.4511434
242	0xbe492c5b	-0.19645827
243	0x3d8a64c9	0.067575045
244	0x3d90f535	0.070780195
245	0x3d261c97	0.04055461
246	0xbc941f73	-0.018081402
247	0xbdae1e7c	-0.08501908
248	0x3d9b2508	0.075754225
249	0x3d990f53	0.07473626
250	0x3d409745	0.047019262
251	0xbdd1cfb4	-0.10244694
252	0xbd9769e8	-0.07393247
253	0xbe09f81e	-0.13473555
254	0x3e6e943c	0.23298734
255	0xbcb2617a	-0.021774996

mlp_extractor.policy_net.6.bias f4 [64]
0	0xbcba1358	-0.022714302
1	0xbd140739	-0.0361397
2	0x3d093ad6	0.033503376
3	0xbbb024eb	-0.0053754947
4	0x3c34b499	0.011029386
5	0xbb4169d1	-0.0029512534
6	0xbb371448	-0.0027935673
7	0x3b7eaede	0.0038861553
8	0xbd16f381	-0.036853317
9	0xbcd3f040	-0.025871396
10	0x3cfef2a9	0.031121569
11	0x3d33b151	0.043870274
12	0xbd051a7f	-0.03249597
13	0x3d1b68e2	0.03794182
14	0xbb946ea2	-0.00452979
15	0xbc99db16	-0.018781226
16	0xbcbf14ce	-0.02332535
17	0x3d32be51	0.04363853
18	0x3c742cce	0.01490326
19	0x3ad5a556	0.0016299884
20	0xbc7a6c80	-0.0152846575
21	0x3cca659c	0.024706654
22	0xbc3c8704	-0.0115068
23	0x3d0770a7	0.033066418
24	0xbcb7eed9	-0.022452759
25	0x3ca47835	0.02007685
26	0x3c1075bf	0.008817135
27	0xbcddde5a	-0.027083565
28	0x3c8648cb	0.016392132
29	0xbd1b6bec	-0.03794472
30	0xbc5262b6	-0.012840917
31	0xbcceca54	-0.025242962
32	0xbc20d203	-0.009815696
33	0xbb879aa9	-0.00413831
34	0xbca1c3c8	-0.019746676
35	0x3d3a854e	0.045537286
36	0xbaee3c5d	-0.0018175949
37	0x3ca8ba65	0.020596692
38	0xbc8f7a4d	-0.017514372
39	0x3c92f1f3	0.017937636
40	0x3cd7dd30	0.026350588
41	0x3c967396	0.018365663
42	0x3d4f4366	0.050601386
43	0x3c2436c8	0.0100228265
44	0x3cf49859	0.029857801
45	0x3c9400d5	0.018066803
46	0x3c9daac1	0.01924646
47	0x3cceeca1	0.025259318
48	0x3c99fc3a	0.018797029
49	0x3bc9c54f	0.006157554
50	0xbba3f845	-0.0050039613
51	0xbca04167	-0.019562436
52	0x3c8c9476	0.017160635
53	0x3b8a3004	0.0042171497
54	0xbcafa691	-0.02144173
55	0xbce9471b	-0.028476289
56	0x3d09b11a	0.033616163
57	0x3ca861c6	0.020554435
58	0x3c52d1d7	0.0128674125
59	0x3c8c3316	0.017114203
60	0xbbad51cd	-0.0052892924
61	0x3d043a44	0.03228213
62	0x3d02dd90	0.03194958
63	0xbb5d0af9	-0.0033728464

action_net.weight f4 [1, 64]
0	0xbdea25b8	-0.114329755
1	0xbb0b581b	-0.0021262232
2	0x3be3fcc6	0.006957623
3	0x3c2978d0	0.010343745
4	0x3cd00ce2	0.025396768
5	0xbd6326e9	-0.05545703
6	0xb9b8a24e	-0.0003521614
7	0xbc1fdf90	-0.009757891
8	0xbda748ae	-0.081681594
9	0xbd0f4715	-0.0349799
10	0x3d993112	0.074800625
11	0x3e9250cd	0.2857727
12	0xbdfb2ba8	-0.12264186
13	0x3dc527a2	0.096267
14	0xbd79c4ae	-0.060978584
15	0xbce2ca89	-0.027684467
16	0xbbb635f9	-0.0055606333
17	0xbbf81520	-0.0075708777
18	0xbbad2a30	-0.00528457
19	0x3daf4e83	0.08559897
20	0xbc322c60	-0.010874838
21	0x3bde6220	0.0067865998
22	0x3bbc2b1f	0.005742445
23	0xbc71bc1e	-0.014754323
24	0xbc5fdaa4	-0.013662968
25	0x3b741162	0.0037241806
26	0xbd936557	-0.071970634
27	0xbd55d2c6	-0.052202962
28	0x3c0f3718	0.008741163
29	0x3c079cdc	0.008277144
30	0xbe7a4f8a	-0.24444404
31	0xbc639bd7	-0.013892136
32	0xbe83bab1	-0.25728372
33	0xbaa3d460	-0.0012499206
34	0xbd520394	-0.051272944
35	0x3d5f397f	0.054498192
36	0xbc7cb24b	-0.015423368
37	0x3e1f5269	0.1555878
38	0xbd177399	-0.036975477
39	0xbb5bd1a4	-0.0033541704
40	0x3d0addb2	0.03390283
41	0x3c46c96c	0.012132984
42	0x3e2182d9	0.1577257
43	0x3c8ead1e	0.017416533
44	0x393f282e	0.00018230148
45	0x3cb2c9eb	0.021824798
46	0x3e5128be	0.20425698
47	0x3d0435c6	0.032277845
48	0x3d83e900	0.064409256
49	0xbd168086	-0.036743663
50	0x3b3f67ec	0.002920623
51	0xbce58608	-0.028018013
52	0xbb8381f2	-0.0040132934
53	0xbea8b56c	-0.32950914
54	0x3cc8b134	0.02449856
55	0xbd58e67e	-0.05295419
56	0x3d41ab0d	0.047282267
57	0x3c9df456	0.019281548
58	0x3c689754	0.014196236
59	0x3bf10659	0.007355493
60	0xbab83978	-0.0014055213
61	0x3e267580	0.1625576
62	0x3c85538e	0.016275194
63	0xbe1b2bb7	-0.15153395
